…
print(model.summary())\n    return model\n\n在模型的定义中，我们以内核大小为3的卷积，这也意味着窗口为3x3像素，输入形状的大小为28x28像素。紧跟着使用了一个池化大小为2的池化层，这里的池化大小为2，意味着将会对每一个输入缩减为原来的一般，因此在下一个卷积层中，输入大小为14x14像素。按照此方式重复两次后，最终的卷积输入大小转换为3x3像素。接下来，使用了Dropout层，将30%的输入单元随机设置为0，以防止训练的过拟合。最后，展平输入层（此例子中为3x3x32&#x3D;288），并将它们连接到一个具有500个输入的密度层。在这些步骤之后，添加了另一个Dropout层，之后连接到最后的密度层，该密度层中包含10个输出单元，这些输出单元对应着我们的目标类别，0到9之间的数字。\n_________________________________________________________________\nLayer (type)                 Output Shape              Param #   \n=================================================================\nconv2d_1 (Conv2D)            (None, 28, 28, 32)        320       \n_________________________________________________________________\nmax_pooling2d_1 (MaxPooling2 (None, 14, 14, 32)        0         \n_________________________________________________________________\nconv2d_2 (Conv2D)            (None, 14, 14, 32)        4128      \n_________________________________________________________________\nmax_pooling2d_2 (MaxPooling2 (None, 7, 7, 32)          0         \n_________________________________________________________________\nconv2d_3 (Conv2D)            (None, 7, 7, 32)          4128      \n_________________________________________________________________\nmax_pooling2d_3 (MaxPooling2 (None, 3, 3, 32)          0         \n_________________________________________________________________\ndropout_1 (Dropout)          (None, 3, 3, 32)          0         \n_________________________________________________________________\nflatten_1 (Flatten)          (None, 288)               0         \n_________________________________________________________________\ndense_1 (Dense)              (None, 500)               144500    \n_________________________________________________________________\ndropout_2 (Dropout)          (None, 500)               0         \n_________________________________________________________________\ndense_2 (Dense)              (None, 10)                5010      \n=================================================================\nTotal params: 158,086\nTrainable params: 158,086\nNon-trainable params: 0\n_________________________________________________________________\n\n7. 训练模型# 训练模型\nmodel &#x3D; network()\n# 编译模型\nmodel.compile(loss&#x3D;&#39;categorical_crossentropy&#39;, optimizer&#x3D;Adadelta(), metrics&#x3D;[&#39;accuracy&#39;])\n# 使用训练数据拟合模
…
